mmingj/dataset/raw_b_1711279683.npy (npy, 576928 bytes, 1 tensors)

array f8 [721, 100]
0	0x3fe6e19be0000000	0.7150401473045349
1	0x3fea8848c0000000	0.8291362524032593
2	0xbe941156c0000000	-2.9903247877882677e-07
3	0x0000000000000000	0.0
4	0x3fe7fd67c0000000	0.7496832609176636
5	0x3fe6df2600000000	0.7147397994995117
6	0x3fa0ce81e0000000	0.0328255258500576
7	0x0000000000000000	0.0
8	0x3fe78d9c60000000	0.736036479473114
9	0x3fe308ef20000000	0.5948405861854553
10	0x3f9b611e00000000	0.02673766016960144
11	0x0000000000000000	0.0
12	0x3fe5c958c0000000	0.6808284521102905
13	0x3fe0772500000000	0.5145440101623535
14	0x3f9520dc40000000	0.020633164793252945
15	0x0000000000000000	0.0
16	0x3fe3eef080000000	0.6229174137115479
17	0x3fdeb09fc0000000	0.4795302748680115
18	0x3f846ebc60000000	0.00997683685272932
19	0x0000000000000000	0.0
20	0x3fe8d150c0000000	0.7755511999130249
21	0x3fe19a5780000000	0.5500905513763428
22	0xbfb010fe80000000	-0.06275931000709534
23	0x0000000000000000	0.0
24	0x3fe7d05b60000000	0.7441841959953308
25	0x3fd950b9c0000000	0.3955520987510681
26	0xbfb61b0740000000	-0.08634991943836212
27	0x0000000000000000	0.0
28	0x3fe722eae0000000	0.723012387752533
29	0x3fd3f6ccc0000000	0.31193846464157104
30	0xbfb8e3c260000000	-0.09722533077001572
31	0x0000000000000000	0.0
32	0x3fe693a180000000	0.7055213451385498
33	0x3fcf21b5c0000000	0.24321624636650085
34	0xbfbab31ee0000000	-0.10429566353559494
35	0x0000000000000000	0.0
36	0x3fe746c160000000	0.7273871302604675
37	0x3fe27e1b80000000	0.5778939723968506
38	0xbfb56bdae0000000	-0.08367698639631271
39	0x0000000000000000	0.0
40	0x3fe4ce6fe0000000	0.650199830532074
41	0x3fdd256d40000000	0.45540934801101685
42	0xbfb55ba9a0000000	-0.08342991024255753
43	0x0000000000000000	0.0
44	0x3fe47e57a0000000	0.6404226422309875
45	0x3fe046c4c0000000	0.5086387395858765
46	0xbfae078600000000	-0.0586511492729187
47	0x0000000000000000	0.0
48	0x3fe5119740000000	0.6583973169326782
49	0x3fe1ac5d60000000	0.5522906184196472
50	0xbfa89b6fa0000000	-0.048060882836580276
51	0x0000000000000000	0.0
52	0x3fe56de920000000	0.6696668267250061
53	0x3fe3749e60000000	0.6079856753349304
54	0xbfb8ece7a0000000	-0.0973648801445961
55	0x0000000000000000	0.0
56	0x3fe34eab60000000	0.6033532023429871
57	0x3fe0912540000000	0.5177179574966431
58	0xbfb55fa7a0000000	-0.08349082618951797
59	0x0000000000000000	0.0
60	0x3fe3771be0000000	0.6082896590232849
61	0x3fe23303e0000000	0.568727433681488
62	0xbfa8e44520000000	-0.04861656203866005
63	0x0000000000000000	0.0
64	0x3fe438d4c0000000	0.6319373846054077
65	0x3fe351d0c0000000	0.6037372350692749
66	0xbfa24dc5a0000000	-0.03574960306286812
67	0x0000000000000000	0.0
68	0x3fe3aea2a0000000	0.6150677800178528
69	0x3fe477c780000000	0.6396214962005615
70	0xbfbb9ef5c0000000	-0.10789428651332855
71	0x0000000000000000	0.0
72	0x3fe24ea900000000	0.5721020698547363
73	0x3fe2317dc0000000	0.568541407585144
74	0xbfb6cb45a0000000	-0.08903918415307999
75	0x0000000000000000	0.0
76	0x3fe2a10de0000000	0.5821599364280701
77	0x3fe3987a40000000	0.6123629808425903
78	0xbfad968080000000	-0.05778886377811432
79	0x0000000000000000	0.0
80	0x3fe32246a0000000	0.5979340672492981
81	0x3fe4b1fc20000000	0.646726667881012
82	0xbfa55ad040000000	-0.04170847684144974
83	0x0000000000000000	0.0
84	0x403d6f7700000000	29.435409545898438
85	0x403bfae3c0000000	27.980037689208984
86	0x4038c35200000000	24.762969970703125
87	0x4037a07b20000000	23.62687873840332
88	0x40081f2f20000000	3.0152266025543213
89	0x3ff7e85ca0000000	1.4942289590835571
90	0x4043884c40000000	39.06482696533203
91	0x40607debe0000000	131.93504333496094
92	0x40409710a0000000	33.18019485473633
93	0x4043685da0000000	38.81535720825195
94	0x40602f4620000000	129.47731018066406
95	0x403ecf4f60000000	30.809804916381836
96	0x4043d34980000000	39.65068054199219
97	0x40602ba360000000	129.3636932373047
98	0x402f2cd480000000	15.58755874633789
99	0x3ff0000000000000	1.0
100	0x3fe71e05c0000000	0.7224148511886597
101	0x3fea762480000000	0.8269217014312744
102	0xbe91b0e5c0000000	-2.636165277181135e-07
103	0x0000000000000000	0.0
104	0x3fe855b780000000	0.7604634761810303
105	0x3fe6dd9940000000	0.7145506143569946
106	0x3f9a399a60000000	0.025610363110899925
107	0x0000000000000000	0.0
108	0x3fe7ff4a60000000	0.7499133944511414
109	0x3fe31655a0000000	0.5964763760566711
110	0x3f90d775e0000000	0.0164469163864851
111	0x0000000000000000	0.0
112	0x3fe640df40000000	0.6954189538955688
113	0x3fe08aca00000000	0.516942024230957
114	0x3f72fec860000000	0.004637510981410742
115	0x0000000000000000	0.0
116	0x3fe460d880000000	0.636821985244751
117	0x3fdf1d81a0000000	0.48617592453956604
118	0xbf89463720000000	-0.01234095636755228
119	0x0000000000000000	0.0
120	0x3fe9322100000000	0.7873692512512207
121	0x3fe1abc660000000	0.5522186160087585
122	0xbfaa168ce0000000	-0.05095329508185387
123	0x0000000000000000	0.0
124	0x3fe7f9fcc0000000	0.7492660284042358
125	0x3fd977f460000000	0.39794644713401794
126	0xbfb360bd80000000	-0.07569488883018494
127	0x0000000000000000	0.0
128	0x3fe7294260000000	0.7237865328788757
129	0x3fd41622a0000000	0.3138510286808014
130	0xbfb65838e0000000	-0.0872836634516716
131	0x0000000000000000	0.0
132	0x3fe68b15e0000000	0.7044782042503357
133	0x3fcfbff4c0000000	0.24804553389549255
134	0xbfb8648360000000	-0.09528370946645737
135	0x0000000000000000	0.0
136	0x3fe791cb60000000	0.7365471720695496
137	0x3fe287f640000000	0.5790969133377075
138	0xbfb2c22a80000000	-0.07327523827552795
139	0x0000000000000000	0.0
140	0x3fe4da69e0000000	0.6516618132591248
141	0x3fdd4b6700000000	0.45772719383239746
142	0xbfb6ef5c00000000	-0.08958983421325684
143	0x0000000000000000	0.0
144	0x3fe45eae80000000	0.6365578174591064
145	0x3fe03b2a20000000	0.5072222352027893
146	0xbfb3509660000000	-0.0754484161734581
147	0x0000000000000000	0.0
148	0x3fe4ee8e40000000	0.6541205644607544
149	0x3fe19f9160000000	0.5507284998893738
150	0xbfb14866c0000000	-0.06751100718975067
151	0x0000000000000000	0.0
152	0x3fe5b98660000000	0.6788970828056335
153	0x3fe3910da0000000	0.6114566922187805
154	0xbfb6eecf80000000	-0.0895814597606659
155	0x0000000000000000	0.0
156	0x3fe3608ec0000000	0.6055368185043335
157	0x3fe068db40000000	0.512799859046936
158	0xbfb82a1220000000	-0.09439194947481155
159	0x0000000000000000	0.0
160	0x3fe35a6020000000	0.6047821640968323
161	0x3fe1e15d40000000	0.5587602853775024
162	0xbfb0a01320000000	-0.06494254618883133
163	0x0000000000000000	0.0
164	0x3fe41af840000000	0.6282922029495239
165	0x3fe30fe680000000	0.5956909656524658
166	0xbfa915b720000000	-0.0489937998354435
167	0x0000000000000000	0.0
168	0x3fe3f642a0000000	0.6238110661506653
169	0x3fe4b25c40000000	0.6467725038528442
170	0xbfba717e40000000	-0.1032942682504654
171	0x0000000000000000	0.0
172	0x3fe265ae80000000	0.5749123096466064
173	0x3fe22b49e0000000	0.5677842497825623
174	0xbfb9cf05a0000000	-0.10081515461206436
175	0x0000000000000000	0.0
176	0x3fe29ffda0000000	0.5820301175117493
177	0x3fe3536ee0000000	0.6039347052574158
178	0xbfb325eb60000000	-0.07479735463857651
179	0x0000000000000000	0.0
180	0x3fe33e2e80000000	0.6013405323028564
181	0x3fe469c800000000	0.6379127502441406
182	0xbfad6671e0000000	-0.0574222169816494
183	0x0000000000000000	0.0
184	0x403ce9c2c0000000	28.913127899169922
185	0x403d4603e0000000	29.273496627807617
186	0x403c59c660000000	28.350683212280273
187	0x403ad43aa0000000	26.82901954650879
188	0x4009ec50e0000000	3.2403886318206787
189	0x3fefcf5a60000000	0.9940616488456726
190	0x4043608fe0000000	38.754390716552734
191	0x40600a1360000000	128.3148651123047
192	0x4043342100000000	38.407257080078125
193	0x403f940da0000000	31.578332901000977
194	0x4060aeeb60000000	133.4662322998047
195	0x40402a4480000000	32.33021545410156
196	0x403c6250c0000000	28.384044647216797
197	0x40614fc0a0000000	138.4922637939453
198	0x40338eff40000000	19.558582305908203
199	0x3ff0000000000000	1.0
200	0x3fe7376a40000000	0.7255145311355591
201	0x3fea6dad20000000	0.8258882164955139
202	0xbe8be86860000000	-2.0792963084659277e-07
203	0x0000000000000000	0.0
204	0x3fe85c0e00000000	0.7612371444702148
205	0x3fe6e47c00000000	0.7153911590576172
206	0x3f967b0540000000	0.021953660994768143
207	0x0000000000000000	0.0
208	0x3fe80afc80000000	0.7513411045074463
209	0x3fe3218ce0000000	0.5978454947471619
210	0x3f87b95e80000000	0.011584032326936722
211	0x0000000000000000	0.0
212	0x3fe63cd460000000	0.6949254870414734
213	0x3fe0b0cc80000000	0.5215818881988525
214	0xbf5f4fed00000000	-0.0019111456349492073
215	0x0000000000000000	0.0
216	0x3fe459eae0000000	0.635976254940033
217	0x3fdf821fa0000000	0.4923171103000641
218	0xbf94e267c0000000	-0.02039491757750511
219	0x0000000000000000	0.0
220	0x3fe93b7180000000	0.788506269454956
221	0x3fe1c36d40000000	0.5551058053970337
222	0xbfa8857c00000000	-0.047893404960632324
223	0x0000000000000000	0.0
224	0x3fe8018420000000	0.7501850724220276
225	0x3fd98509c0000000	0.39874500036239624
226	0xbfb2516640000000	-0.07155455648899078
227	0x0000000000000000	0.0
228	0x3fe72d2640000000	0.7242614030838013
229	0x3fd428b3c0000000	0.3149842619895935
230	0xbfb4c6b380000000	-0.08115693926811218
231	0x0000000000000000	0.0
232	0x3fe68ca620000000	0.7046690583229065
233	0x3fcfdeba40000000	0.24898460507392883
234	0xbfb67ff560000000	-0.08788999170064926
235	0x0000000000000000	0.0
236	0x3fe796a620000000	0.7371397614479065
237	0x3fe29199e0000000	0.5802735686302185
238	0xbfb1f60780000000	-0.07016035914421082
239	0x0000000000000000	0.0
240	0x3fe4eb93c0000000	0.6537569761276245
241	0x3fdd357000000000	0.4563865661621094
242	0xbfb76c9a40000000	-0.0915008932352066
243	0x0000000000000000	0.0
244	0x3fe46aa9e0000000	0.6380204558372498
245	0x3fe027d000000000	0.5048599243164062
246	0xbfb497c660000000	-0.08044090121984482
247	0x0000000000000000	0.0
248	0x3fe4f96900000000	0.6554455757141113
249	0x3fe19c2960000000	0.5503126978874207
250	0xbfb28bda00000000	-0.07244646549224854
251	0x0000000000000000	0.0
252	0x3fe5c635c0000000	0.6804455518722534
253	0x3fe39a5ac0000000	0.6125921010971069
254	0xbfb63a4c60000000	-0.08682706207036972
255	0x0000000000000000	0.0
